…
    "text": "transformers is a library in python that allows you to use pre-trained machine learning models that belong to the transformers architecture. So in the following example, the pre-trained Bert model has been loaded and deiaplayed:\nimport numpy as np"
  },
  {
    "objectID": "python/advanced/transformers.html#load-model",
    "href": "python/advanced/transformers.html#load-model",
    "title": "Transformers",
    "section": "Load model",
    "text": "Load model\n\nfrom transformers import BertModel\nmodel = BertModel.from_pretrained('bert-base-cased')\nmodel\n\nBertModel(\n  (embeddings): BertEmbeddings(\n    (word_embeddings): Embedding(28996, 768, padding_idx=0)\n    (position_embeddings): Embedding(512, 768)\n    (token_type_embeddings): Embedding(2, 768)\n    (LayerNorm): LayerNorm((768,), eps=1e-12, elementwise_affine=True)\n    (dropout): Dropout(p=0.1, inplace=False)\n  )\n  (encoder): BertEncoder(\n    (layer): ModuleList(\n      (0-11): 12 x BertLayer(\n        (attention): BertAttention(\n          (self): BertSelfAttention(\n            (query): Linear(in_features=768, out_features=768, bias=True)\n            (key): Linear(in_features=768, out_features=768, bias=True)\n            (value): Linear(in_features=768, out_features=768, bias=True)\n            (dropout): Dropout(p=0.1, inplace=False)\n          )\n          (output): BertSelfOutput(\n            (dense): Linear(in_features=768, out_features=768, bias=True)\n            (LayerNorm): LayerNorm((768,), eps=1e-12, elementwise_affine=True)\n            (dropout): Dropout(p=0.1, inplace=False)\n          )\n        )\n        (intermediate): BertIntermediate(\n          (dense): Linear(in_features=768, out_features=3072, bias=True)\n          (intermediate_act_fn): GELUActivation()\n        )\n        (output): BertOutput(\n          (dense): Linear(in_features=3072, out_features=768, bias=True)\n          (LayerNorm): LayerNorm((768,), eps=1e-12, elementwise_affine=True)\n          (dropout): Dropout(p=0.1, inplace=False)\n        )\n      )\n    )\n  )\n  (pooler): BertPooler(\n    (dense): Linear(in_features=768, out_features=768, bias=True)\n    (activation): Tanh()\n  )\n)"
  },
  {
    "objectID": "python/advanced/transformers.html#tokenizer",
    "href": "python/advanced/transformers.html#tokenizer",
    "title": "Transformers",
    "section": "Tokenizer",
    "text": "Tokenizer\nTo use the model correctly, you may need a tokiniser - a program that trains text to tokens. Trainformers a
…
    "text": "Sometimes you don’t need to create a model from scratch, you can take an existing model and tune it for your task. Here are some ready-made models available in Pytorch.\nHere here you can find some models that available in the torch.\nimport torch\nfrom torch import nn"
  },
  {
    "objectID": "python/torch/vision/pretrains.html#importing-model",
    "href": "python/torch/vision/pretrains.html#importing-model",
    "title": "Pretrains",
    "section": "Importing model",
    "text": "Importing model\nLet’s take for example alexnet. In the following cell it imported and displayed.\n\nmodel = torch.hub.load('pytorch/vision:v0.10.0', 'alexnet', pretrained=True)\nmodel\n\nUsing cache found in /home/fedor/.cache/torch/hub/pytorch_vision_v0.10.0\n\n\nAlexNet(\n  (features): Sequential(\n    (0): Conv2d(3, 64, kernel_size=(11, 11), stride=(4, 4), padding=(2, 2))\n    (1): ReLU(inplace=True)\n    (2): MaxPool2d(kernel_size=3, stride=2, padding=0, dilation=1, ceil_mode=False)\n    (3): Conv2d(64, 192, kernel_size=(5, 5), stride=(1, 1), padding=(2, 2))\n    (4): ReLU(inplace=True)\n    (5): MaxPool2d(kernel_size=3, stride=2, padding=0, dilation=1, ceil_mode=False)\n    (6): Conv2d(192, 384, kernel_size=(3, 3), stride=(1, 1), padding=(1, 1))\n    (7): ReLU(inplace=True)\n    (8): Conv2d(384, 256, kernel_size=(3, 3), stride=(1, 1), padding=(1, 1))\n    (9): ReLU(inplace=True)\n    (10): Conv2d(256, 256, kernel_size=(3, 3), stride=(1, 1), padding=(1, 1))\n    (11): ReLU(inplace=True)\n    (12): MaxPool2d(kernel_size=3, stride=2, padding=0, dilation=1, ceil_mode=False)\n  )\n  (avgpool): AdaptiveAvgPool2d(output_size=(6, 6))\n  (classifier): Sequential(\n    (0): Dropout(p=0.5, inplace=False)\n    (1): Linear(in_features=9216, out_features=4096, bias=True)\n    (2): ReLU(inplace=True)\n    (3): Dropout(p=0.5, inplace=False)\n    (4): Linear(in_features=4096, out_features=4096, bias=True)\n    (5): ReLU(inplace=True)\n    (6): Linear(in_features=4096, out_features=1000, bias=True)\n  )\n)"
  },
  {
    "objectID": "python/torch/vision/pretrains.html#replace-layers",
    "href": "python/torch/vision/pretrains.html#replace-layers",
    "title": "Pretrains",
    "section": "Replace layers",
    "text": "Replace layers\nEven if you’ve taken an off-the-shelf architecture, sometimes you need to adapt the model for your specific task. So you need to replace some layers with other layers. Suppose you have a task that requires you to classify into ten classes, but classical alexnet model adapted to ImageNet dataset has 1000 outputs. So you have to replace at least the last layer and rebuild the model.\nIn the following cell I’ll refer to the classifier block of Alexnet and replace its layer with nn.Linear with a chosen number of outputs. Note the last layer of the net - it has out_features specified in the cell:\n\nmodel.classifier[-1] = nn.Linear(in_features = 4096, out_features = 10)\nmodel\n\nAlexNet(\n  (features): Sequential(\n    (0): Conv2d(3, 64, kernel_size=(11, 11), stride=(4, 4), padding=(2, 2))\n    (1): ReLU(inplace=True)\n    (2): MaxPool2d(kernel_size=3, stride=2, padding=0, dilation=1, ceil_mode=False)\n    (3): Conv2d(64, 192, kernel_size=(5, 5), stride=(1, 1), padding=(2, 2))\n    (4): ReLU(inplace=True)\n    (5): MaxPool2d(kernel_size=3, stride=2, padding=0, dilation=1, ceil_mode=False)\n    (6): Conv2d(192, 384, kernel_size=(3, 3), stride=(1, 1), padding=(1, 1))\n    (7): ReLU(inplace=True)\n    (8): Conv2d(384, 256, kernel_size=(3, 3), stride=(1, 1), padding=(1, 1))\n    (9): ReLU(inplace=True)\n    (10): Conv2d(256, 256, kernel_size=(3, 3), stride=(1, 1), padding=(1, 1))\n    (11): ReLU(inplace=True)\n    (12): MaxPool2d(kernel_size=3, stride=2, padding=0, dilation=1, ceil_mode=False)\n  )\n  (avgpool): AdaptiveAvgPool2d(output_size=(6, 6))\n  (classifier): Sequential(\n    (0): Dropout(p=0.5, inplace=False)\n    (1): Linear(in_features=9216, out_features=4096, bias=True)\n    (2): ReLU(inplace=True)\n    (3): Dropout(p=0.5, inplace=False)\n    (4): Linear(in_features=4096, out_features=4096, bias=True)\n    (5): ReLU(inplace=True)\n    (6): Linear(in_features=4096, out_features=10, bias=True)\n  )\n)"
  },
  {
    "objectID": "python/torch/vision/datasets.html",
    "href": "python/torch/vision/datasets.html",
    "title": "Datasets",
    "section": "",
    "text": "torchvision is the development of a more basic torch. So it’s datasets have some features that will be described here.\nfrom IPython.display import HTML\n\nimport torch\nfrom to
…
